converted_mnist_model.tflite (tflite, 408224 bytes, 4 tensors)

dense/MatMul_bias f4 [128]
-0.03868465 0.14749976 0.05672649 -0.03513457 -0.11807917 -0.006517701 0.036324453 0.08004413
-0.022598652 0.22580002 0.13650195 0.10467268 -0.015675057 0.07271675 -0.0057314783 0.024167908
0.10000256 0.032069232 0.033651635 0.015486018 0.026028816 -0.018197168 0.046776462 -0.08013691
0.056834206 0.10264429 0.035914842 0.11509972 -0.049736954 0.20513193 -0.0099823065 0.03760134
-0.06331997 0.116219714 -0.024400862 -0.10103809 0.043333203 0.03353869 -0.033153433 0.08975221
-0.0034899195 0.014233907 0.07824068 0.19472097 -0.0014076201 0.17235664 0.005230169 -0.031675063
0.20432849 0.18114498 0.11711512 0.13518235 0.106942736 -0.049815286 0.062106725 0.027669841
-0.009778835 -0.07368639 0.035493832 0.15768793 -0.13459282 0.011958348 -0.011966297 -0.028544713
0.009106961 0.10038811 -0.07508354 0.09903311 -0.028205466 -0.0011126685 -0.03818248 0.014077083
0.01599156 -0.07936791 0.021458203 0.05205981 0.17055812 0.16445224 -0.036519825 0.06286002
0.108274885 -0.061098192 0.1672162 0.19691575 0.06684627 0.007503989 0.044931673 0.132693
-0.08546299 0.14118396 -0.05817647 0.073958874 0.15312342 -0.056246072 -0.01636804 -0.11732991
-0.07990266 -0.0083617885 -0.03754752 0.17822419 -0.12828577 0.10993521 0.2151553 0.07845449
0.116050996 -0.08196973 -0.019504389 0.13982327 -0.011061757 0.004057303 0.088343985 -0.04812799
0.0639257 -0.04964362 0.0065235477 -0.14966434 0.1713947 -0.04598144 -0.19922693 -0.030455166
0.022648625 0.21277834 0.14270031 -0.098137155 -0.032499272 -0.11898041 0.0045146598 -0.08224566
00000000: cc73 1ebd 2d0a 173e 095a 683d 44e9 0fbd
00000010: 7ed3 f1bd 7092 d5bb f3c8 143d 2dee a33d
00000020: cf20 b9bc 1f38 673e 2bc7 0b3e a15e d63d
00000030: fa68 80bc 85ec 943d 20cf bbbb c7fb c53c
00000040: 24ce cc3d 075b 033d 4cd6 093d 11b9 7d3c
00000050: 623a d53c 3a12 95bc ad98 3f3d d21e a4bd
00000060: fcca 683d 2b37 d23d 711b 133d 67b9 eb3d
00000070: fab8 4bbd 1b0e 523e d48c 23bc dd03 1a3d
00000080: e7ad 81bd 9a04 ee3d 51e4 c7bc 0fed cebd
00000090: 287e 313d de5f 093d e5cb 07bd 02d0 b73d
000000a0: 22b7 64bb 5535 693c a63c a03d ef64 473e
000000b0: e57f b8ba 427e 303e d661 ab3b b6bd 01bd
000000c0: 7d3b 513e 127e 393e 0dda ef3d 3e6d 0a3e
000000d0: cb04 db3d 1d0b 4cbd 9f63 7e3d ddab e23c
000000e0: 6837 20bc e4e8 96bd fb61 113d f278 213e
000000f0: b3d2 09be f2ec 433c 4a0e 44bc 9ad6 e9bc
00000100: 5d35 153c 4898 cd3d 66c5 99bd dfd1 ca3d
00000110: 260f e7bc f6d6 91ba 3b65 1cbd 91a3 663c
00000120: bb00 833c a58b a2bd 1dc9 af3c ab3c 553d
00000130: caa6 2e3e 2b66 283e d095 15bd c1bc 803d
00000140: 39bf dd3d 1942 7abd b93a 2b3e 48a4 493e
00000150: b2e6 883d 06e4 f53b 460a 383d ace0 073e
00000160: 3807 afbd 8792 103e 734a 6ebd c077 973d
00000170: 63cc 1c3e 4862 66bd 4516 86bc aa4a f0bd
00000180: 01a4 a3bd e2ff 08bc 6ecb 19bd 6780 363e
00000190: 585d 03be b625 e13d ac51 5c3e bfac a03d
000001a0: 25ac ed3d bfdf a7bd abc7 9fbc d52d 0f3e
000001b0: 5f3c 35bc 20f3 843b b1ed b43d db21 45bd
000001c0: 7aeb 823d 1c57 4bbd 7cc3 d53b 9c41 19be
000001d0: 1882 2f3e 0957 3cbd 2502 4cbe 1d7d f9bc
000001e0: 9c89 b93c 91e2 593e 0820 123e 22fc c8bd
000001f0: f51d 05bd 00ac f3bd b6ef 933b 6a70 a8bd

dense/kernel/transpose f4 [128, 784]
-0.025675442 -0.0369324 0.048139192 0.020072326 0.06139206 0.012793854 -0.0025221407 -0.05637451
-0.047451023 -0.002233304 -0.01669889 0.0015754551 -0.008463674 0.13544233 -0.034685493 -0.061603185
-0.07292293 -0.015034869 0.05709649 0.03795965 0.053501256 0.044238485 0.059931003 -0.050809838
0.0715025 0.025487669 0.06543603 0.003696166 -0.05714433 0.041014 -0.0006864518 -0.0150507465
-0.020000068 0.0036470906 -0.06655441 0.038632587 0.03329016 0.18948914 0.06989123 0.1433707
0.22547758 0.36975083 0.09932491 -0.008188639 -0.08368425 -0.06652295 0.18194608 0.22369933
0.21841888 0.157173 0.04551949 -0.028768511 -0.0689321 -0.016037732 -0.013135172 -0.02695382
-0.076374605 0.035970032 0.04364656 -0.04859688 -0.1013522 0.048742823 0.12953654 0.20280479
0.27949452 0.09685284 0.007053656 0.04842441 0.12000125 0.32012764 0.51842266 0.31756866
0.21257517 -0.0027636162 0.016994549 0.12092048 0.12751403 0.2565819 0.19374907 0.086640544
0.031184573 0.05318823 -0.046199005 -0.062391583 0.04302518 0.056413375 -0.124577075 -0.0835585
-0.113075614 -0.023982663 0.021084987 0.1277626 0.092752874 -0.13172825 0.02437181 -0.0022234602
0.103604846 0.23662901 0.26723024 0.013757823 -0.0463603 -0.08778497 -0.01824204 0.17088768
0.032514945 -0.047953375 0.056495383 0.048164837 0.1055939 0.08844426 -0.060079418 0.004290879
0.0062760115 -0.012115123 -0.07507979 -0.06272413 0.058986165 -0.045752417 0.052515976 0.04791632
-0.035543006 -0.13917002 -0.07653253 -0.07677707 -0.0564524 -0.054185998 -0.17352523 -0.27677327
-0.29760143 -0.15750852 -0.21950535 -0.11520082 -0.00578912 -0.09827175 -0.15712069 -0.18213168
-0.040093962 0.031669416 0.17292216 0.07745148 -0.0010938868 0.06403849 -0.07859874 -0.07745949
-0.10534995 -0.008671768 0.1256363 0.070337474 -0.018295439 -0.19411471 -0.29244876 -0.092139654
0.18011713 0.066532224 -0.016652746 -0.2212587 -0.123366565 -0.06923383 -0.15625514 -0.2645854
-0.28322485 -0.23273073 -0.32533005 -0.26146686 -0.013090342 0.26608872 0.25061724 0.071192406
0.0034976974 0.15735513 0.1709901 -0.028979652 -0.13332321 0.014761756 -0.05736867 0.006887039
-0.09037937 0.05087543 -0.06760668 0.067878164 0.025104674 0.087461 -0.09939114 0.09445596
-0.020596249 0.07076822 0.124835595 -0.091200046 -0.0961124 -0.10108773 -0.12354312 -0.11575303
-0.09601804 0.019323468 0.032239992 0.1450756 0.04679277 0.15192996 0.23207273 -0.09709098
-0.16993077 -0.22767368 0.09429443 0.116709836 -0.02782494 -0.07045162 -0.0341656 -0.002119852
0.03830773 -0.054812826 -0.039282903 0.145553 0.040176068 -0.031576782 0.12871684 0.09884341
-0.048568007 -0.0061369324 -0.016286062 -0.035660945 -0.03360646 0.00372674 0.112760425 0.10401297
-0.17802286 -0.05627864 0.29366395 0.21413271 0.019397063 -0.001235614 0.07559764 0.23651196
0.067259595 0.034312878 0.09960351 0.050975565 0.020180756 0.013212231 0.024804309 0.04407374
-0.070263445 0.0034621856 0.175339 -0.039500423 -0.047292553 0.0591738 0.25671163 -0.025245322
0.004469922 0.0785027 0.19091797 -0.0024508454 0.11868229 0.121881306 0.2429501 0.1283888
00000000: 4e55 d2bc 6e46 17bd 9a2d 453d b86e a43c
00000010: 3e76 7b3d 509d 513c 804a 25bb f5e8 66bd
00000020: 015c 42bd a05c 12bb 1ccc 88bc 807f ce3a
00000030: 39ab 0abc 65b1 0a3e 6012 0ebd 9f53 7cbd
00000040: 9e58 95bd d054 76bc 02de 693d 947b 1b3d
00000050: 2224 5b3d 6a33 353d 367a 753d fa1d 50bd
00000060: e76f 923d 84cb d03c 5303 863d 603b 723b
00000070: 2c10 6abd 4cfe 273d 00f3 33ba 6897 76bc
00000080: 2fd7 a3bc 0704 6f3b ae4d 88bd 343d 1e3d
00000090: 435b 083d 7109 423e 2223 8f3d c5cf 123e
000000a0: 98e3 663e fb4f bd3e dc6a cb3d a429 06bc
000000b0: a662 abbd 2f3d 88bd 1350 3a3e 7011 653e
000000c0: 33a9 5f3e f5f1 203e a572 3a3d f1ab ebbc
000000d0: 462c 8dbd 9061 83bc e834 57bc 42ce dcbc
000000e0: 4a6a 9cbd 5055 133d bcc6 323d 860d 47bd
000000f0: be91 cfbd 8ea6 473d 3aa5 043e 0fac 4f3e
00000100: e819 8f3e c85a c63d 5b22 e73b ad58 463d
00000110: 37c3 f53d c5e7 a33e 59b7 043f 5c98 a23e
00000120: 4ead 593e c91d 35bb 2738 8b3c 28a5 f73d
00000130: 0a93 023e b45e 833e 2866 463e 9970 b13d
00000140: ca76 ff3c e7db 593d 2b3b 3dbd 518e 7fbd
00000150: 2c3b 303d b611 673d 4422 ffbd b820 abbd
00000160: 3094 e7bd 4a77 c4bc 6cba ac3c 33d4 023e
00000170: 38f5 bd3d c5e3 06be 64a7 c73c 79b7 11bb
00000180: c72e d43d e04e 723e 67d2 883e 7e68 613c
00000190: 4ce4 3dbd 9bc8 b3bd 5570 95bc 2efd 2e3e
000001a0: 642e 053d c26a 44bd b467 673d 7e48 453d
000001b0: 9d41 d83d 4422 b53d d615 76bd 809a 8c3b
000001c0: 00a7 cd3b 827e 46bc 6fc3 99bd 8275 80bd
000001d0: 7a9b 713d e366 3bbd fe1a 573d e743 443d
000001e0: 8b95 11bd 9682 0ebe 16bd 9cbd 4c3d 9dbd
000001f0: a23a 67bd 23f2 5dbd 99b0 31be 3ab5 8dbe
00000200: 375f 98be ea49 21be 03c6 60be 68ee ebbd
00000210: a9b2 bdbb b342 c9bd 3fe4 20be ba80 3abe
00000220: 9139 24bd cab7 013d 8212 313e e29e 9e3d
00000230: c060 8fba 9d26 833d 60f8 a0bd 15a3 9ebd
00000240: b7c1 d7bd 0814 0ebc cda6 003e 180d 903d
00000250: 51e0 95bc 02c6 46be d8bb 95be b7b3 bcbd
00000260: a070 383e 0c42 883d 576b 88bc a491 62be
00000270: 9ca7 fcbd 77ca 8dbd 5901 20be bd77 87be
00000280: d902 91be f750 6ebe a991 a6be fcde 85be
00000290: e078 56bc c83c 883e e750 803e 53cd 913d
000002a0: a039 653b b421 213e 0718 2f3e bc66 edbc
000002b0: e185 08be 4bdb 713c 69fb 6abd acac e13b
000002c0: d218 b9bd c162 503d 5f75 8abd b503 8b3d
000002d0: 51a8 cd3c c11e b33d 958d cbbd 2072 c13d
000002e0: 77b9 a8bc eeee 903d cea9 ff3d 17c7 babd
000002f0: 94d6 c4bd 1507 cfbd 2d04 fdbd ed0f edbd
00000300: 1ba5 c4bd 404c 9e3c 150e 043d b38e 143e
00000310: c7a9 3f3d 8793 1b3e 79a4 6d3e a3d7 c6bd
00000320: 5502 2ebe 4a23 69be 701d c13d 9105 ef3d
00000330: 21f1 e3bc f048 90bd 3af1 0bbd 37ed 0abb
00000340: 91e8 1c3d 6a83 60bd 1ce7 20bd d80b 153e
00000350: a98f 243d a856 01bd 59ce 033e 6a6e ca3d
00000360: 3fef 46bd 5218 c9bb 596a 85bc 3611 12bd
00000370: eda6 09bd 523c 743b f0ee e63d c104 d53d
00000380: a04b 36be 6e84 66bd 1f5b 963e 9b45 5b3e
00000390: 97e6 9e3c 53f4 a1ba efd2 9a3d 3130 723e
000003a0: 66bf 893d a98b 0c3d edfc cb3d c1cb 503d
000003b0: 1d52 a53c 1d78 583c 6832 cb3c aa86 343d
000003c0: 48e6 8fbd d6e5 623b 118c 333e 32cb 21bd
000003d0: d6b5 41bd 3a60 723d b56f 833e 47cf cebc
000003e0: 6c78 923b 06c6 a03d 0080 433e 5d9e 20bb
000003f0: b30f f33d e89c f93d e9c7 783e 5b78 033e

dense_1/MatMul_bias f4 [10]
-0.14315337 -0.0698909 0.032678053 -0.14119603 0.07281218 0.104856014 -0.118654154 -0.025224198
0.18255085 0.003482619
00000000: cc96 12be f622 8fbd 6cd9 053d b195 10be
00000010: 8d1e 953d c0be d63d f300 f3bd faa2 cebc
00000020: 9cee 3a3e a73c 643b

dense_1/kernel/transpose f4 [10, 128]
-0.4594882 0.07980881 0.23306622 0.22112498 0.22315279 -0.059732314 -0.45837694 0.20769453
0.2093359 -0.41917136 0.13832356 -0.017903477 -0.1880647 0.42530903 0.07283588 -0.30373648
-0.088555105 -0.25336093 -0.08456993 0.2271305 -0.49210212 -0.25115845 0.08121623 0.1064303
-0.22877687 -0.012901643 -0.22129205 -0.3237915 -0.0012888702 0.2862486 0.19530816 0.25725782
0.08995164 -0.057132527 -0.39394206 0.27036333 -0.18575917 0.025651567 -0.08132911 0.36783573
-0.11323714 -0.16443552 0.13424447 -0.08811356 -0.14057589 -0.3144244 0.080997474 0.1389944
-0.34235322 -0.05275207 0.24482623 -0.39105225 0.25204468 0.06651894 -0.020830952 0.2034609
-0.06133503 -0.44750443 -0.50812286 -0.43568718 0.052336864 0.28459027 -0.030057667 0.11648232
0.24028988 0.27195877 -0.3155083 -0.35444584 -0.05808132 -0.045823235 0.16323449 -0.90106845
0.11702616 0.33735198 0.041523866 0.029276146 -0.10633781 -0.4030892 -0.5355314 0.098864235
-0.18326226 -0.21333322 0.17092621 0.28456873 0.1472788 -0.23166609 -0.20222099 0.025538715
-0.16420095 0.07133826 -0.14054151 -0.15660588 -0.1877459 -0.5325857 -0.17908591 -0.20811683
0.2811684 0.1558791 -0.045763295 -0.4767274 0.32862222 -0.6028544 -0.5567752 -0.44025338
0.07323098 0.16409159 0.123597 -0.059710607 0.27025512 -0.33923772 -0.198066 -0.121856846
-0.1919857 0.1689808 -0.64222264 -0.56054926 -0.281821 0.23404005 0.32856923 0.17154938
-0.054322172 -0.5706296 -0.42689052 -0.05561308 0.36275715 0.10832817 -0.19570404 -0.33761695
-0.25206536 -0.72315043 0.4306796 0.02034045 -0.15685512 0.00716946 -0.3522038 0.15000598
-0.11631549 0.2946783 0.38144746 -0.7463627 0.13297595 -0.03934637 0.5058529 0.0068235137
0.027829507 0.25874677 0.41885608 0.10253583 0.10137646 0.061556615 -0.24451448 -0.10555101
0.14564645 -0.52908033 -0.4327226 0.62014157 -0.13214453 0.25975156 -0.3068163 -0.4086501
-0.07925788 0.24246183 -0.13920526 0.19102558 0.1906742 -0.16936077 -0.5537726 -0.44828358
0.12511623 -0.31206954 -0.3638533 -0.5711879 0.12198238 0.24386702 0.18727475 -0.43717173
0.093310244 -0.3126104 -0.33411774 0.36432984 -0.004865091 -0.023020342 -0.23587209 -0.068336606
0.10447938 -0.1636182 0.15590043 0.5999388 0.15794688 -0.33775413 -0.22034 -0.13301773
0.064933814 0.49429297 0.1010383 0.028058114 0.33634552 -0.22568731 -0.07795776 0.030588424
0.1494623 -0.40811753 -0.3442529 0.23341917 -0.36484647 0.2454929 -0.43881664 -0.40861586
0.15812881 -0.11805194 0.18829335 -0.26777962 0.14898731 0.63187057 0.03721527 -0.25793558
-0.0059055416 -0.565329 -0.36619437 0.7491883 -0.29225436 0.2790232 -0.120453596 0.007946156
0.056270197 0.59246564 0.14805345 0.08530094 -0.58810866 0.22088198 -0.46786055 -0.022585921
-0.45538798 0.04067313 -0.061979603 -0.13907278 -0.039303407 0.05983808 0.25825566 0.0126579525
0.07051473 -0.5233049 -0.16157435 0.21657272 -0.009188554 -0.2575901 0.1823032 -0.064459294
-0.3008078 -0.14857478 0.3848509 0.31125364 0.0603181 -0.11658125 -0.7076388 -0.16993827
00000000: 0a42 ebbe cd72 a33d e9a8 6e3e 966e 623e
00000010: 2a82 643e dfa9 74bd 62b0 eabe e0ad 543e
00000020: 265c 563e a19d d6be b1a4 0d3e 50aa 92bc
00000030: 0894 40be 1bc2 d93e fa2a 953d 5983 9bbe
00000040: 615c b5bd 86b8 81be 0033 adbd e694 683e
00000050: cff4 fbbe d797 80be b254 a63d 21f8 d93d
00000060: 7c44 6abe 6a61 53bc 629a 62be 00c8 a5be
00000070: 4fef a8ba 2d8f 923e ddfe 473e 4cb7 833e
00000080: 9138 b83d cc03 6abd c6b2 c9be 106d 8a3e
00000090: a737 3ebe 3c23 d23c e08f a6bd f754 bc3e
000000a0: e0e8 e7bd c961 28be 6277 093e e274 b4bd
000000b0: 20f3 0fbe 3cfc a0be 01e2 a53d 8c54 0e3e
000000c0: ec48 afbe 8e12 58bd bab3 7a3e 0038 c8be
000000d0: 000c 813e 153b 883d aca5 aabc 0e58 503e
000000e0: 713a 7bbd 4d1f e5be 5714 02bf 6412 dfbe
000000f0: 2e5f 563d d1b5 913e 7f3b f6bc 488e ee3d
00000100: 8d0e 763e 2e3e 8b3e 4e8a a1be ed79 b5be
00000110: aee6 6dbd 25b1 3bbd f126 273e 6cac 66bf
00000120: 69ab ef3d 66b9 ac3e ee14 2a3d 87d4 ef3c
00000130: a3c7 d9bd b561 cebe 9618 09bf 5579 ca3d
00000140: 1aa9 3bbe 0674 5abe 4807 2f3e feb2 913e
00000150: 41d0 163e e039 6dbe 0513 4fbe 9136 d13c
00000160: 4b24 28be cb19 923d 1dea 0fbe 4b5d 20be
00000170: 7640 40be 8957 08bf 4c62 37be 941c 55be
00000180: 4ef5 8f3e c59e 1f3e 4b72 3bbd 9d15 f4be
00000190: 2c41 a83e aa54 1abf d288 0ebf e468 e1be
000001a0: 20fa 953d a007 283e 6d20 fd3d 1c93 74bd
000001b0: e15e 8a3e 91b0 adbe d0d1 4abe 1590 f9bd
000001c0: e697 44be 4e09 2d3e b468 24bf 2880 0fbf
000001d0: d84a 90be 32a8 6f3e 3a3a a83e a4aa 2f3e
000001e0: ed80 5ebd c814 12bf 6591 dabe 8aca 63bd
000001f0: 4ebb b93e 29db dd3d a466 48be 21dc acbe
00000200: b60e 81be 6320 39bf 0982 dc3e 04a1 a63c
00000210: a19e 20be caed ea3b 0e54 b4be 2b9b 193e
00000220: d136 eebd 13e0 963e 154d c33e a011 3fbf
00000230: d92a 083e a929 21bd 937f 013f c897 df3b
00000240: b5fa e33c 757a 843e 4e74 d63e 4efe d13d
00000250: 769e cf3d ca22 7c3d 0162 7abe 212b d8bd
00000260: 5824 153e cf71 07bf d18d ddbe 99c1 1e3f
00000270: e550 07be 28fe 843e 0717 9dbe 963a d1be
00000280: f551 a2bd ea47 783e d38b 0ebe 369c 433e
00000290: 1940 433e e96c 2dbe 0bc4 0dbf 6d85 e5be
000002a0: 781e 003e 94c7 9fbe fb4a babe 5f39 12bf
000002b0: e6d1 f93d 47b8 793e f4c4 3f3e f9d4 dfbe
000002c0: 7119 bf3d 780e a0be 7b11 abbe 7189 ba3e
000002d0: 576b 9fbb 2895 bcbc 7488 71be 10f4 8bbd
000002e0: 49f9 d53d 888b 27be 5da4 1f3e 9795 193f
000002f0: d4bc 213e 1cee acbe cfa0 61be cd35 08be
00000300: 05fc 843d f813 fd3e 2bed ce3d 21da e53c
00000310: 7b35 ac3e 931a 67be 51a8 9fbd 9394 fa3c
00000320: a50c 193e c8f4 d0be eb41 b0be 6f05 6f3e
00000330: 28cd babe 7e62 7b3e 93ac e0be 1936 d1be
00000340: 85ec 213e 37c5 f1bd f9cf 403e 691a 89be
00000350: 2190 183e 45c2 213f 0a6f 183d 2210 84be
00000360: 4683 c1bb 67b9 10bf d47d bbbe ceca 3f3f
00000370: 5da2 95be 21dc 8e3e 60b0 f6bd 9830 023c
00000380: 947b 663d d4ab 173f 539b 173e 42b2 ae3d
00000390: 4a8e 16bf e32e 623e 6b8b efbe 1c06 b9bc
000003a0: 9d28 e9be de98 263d 53de 7dbd 1869 0ebe
000003b0: 9cfc 20bd c618 753d 163a 843e 4d63 4f3c
000003c0: 076a 903d 4ff7 05bf bf73 25be 3dc5 5d3e
000003d0: 978b 16bc d9e2 83be b1ad 3a3e 3c03 84bd
000003e0: 7b03 9abe fd23 18be 2d0b c53e a35c 9f3e
000003f0: 1d10 773d 27c2 eebd d127 35bf 4c04 2ebe
